app/mnist.pth (torch, 59784 bytes, 8 tensors)

conv1.weight f4 [16, 1, 3, 3]
00000000: 4960 d8be 16ec 85be da2f d6bd 5eae 9dbe
00000010: 35ad 113e 2dde d33e 488e 41be 8b3d ac3e
00000020: 4322 ef3d 62c3 8dbd a9d4 a83e 9542 83be
00000030: 8614 a43e c83c 4f3d 2885 983e 1789 823e
00000040: 2d70 803d a8e8 103e 747b 6abe 4a4e e8bd
00000050: c736 103e 71da 65be 8013 853e 96c2 ad3e
00000060: b037 173e 9d07 c6be eaad 15bf 88d9 85be
00000070: 0eb4 ba3e 4510 72bd 3116 0bbf 78f4 49bd
00000080: 9b2f afbe e0e7 31be 398a f2be 683c e4be
00000090: c13b c33d 004a 223d 39df 24be 6591 6a3e
000000a0: 8e03 90b9 e1a7 4dbc a266 073f 3a06 4dbd
000000b0: a180 2e3f a7b1 843d 6d50 523e fb0f 03bf
000000c0: c3bd a53e 0d2f 993e 669d cebe b55d 983d
000000d0: 6d41 e73d cec9 d1be a18b ebbe 4c92 d23d
000000e0: 9447 5d3e 9ac8 8cbe 2c09 623e 1623 023f
000000f0: 2557 e63e f584 fe3d f139 2bbe 25ae 1bb9
00000100: 172d 9cbe 2edc ef3e cefe 85bd 0409 9d3e
00000110: dad6 233e b60f ce3e 93a6 2b3d 319d 573e
00000120: 621d 91be c479 e0be ce58 73be 55ef 12be
00000130: ee8e 763d f477 82bd 95c3 d13e 42dd 733e
00000140: 9613 9a3e e1b2 aa3e 639c 433e 8b9f 51be
00000150: 4a63 46be 426b 83be ef18 84be 38c0 81bd
00000160: 4396 31be 62f8 893e 8155 84be 75ea 323e
00000170: b582 153e a546 833e 4d51 d93e 1f0d ac3e
00000180: a743 5b3e 1ee2 343c 8beb 6dbe 6e60 793e
00000190: 6162 babe 57ee c8be ec51 a73d 35e5 35be
000001a0: 2385 46be becb 163e 9846 c7be 711f ac3c
000001b0: 7437 f83d 847a a1be c8a2 95be 510a 97be
000001c0: 6890 96be 35e7 a93d 8555 b2be cf59 bcbd
000001d0: a2f4 763e 7a2c a8bd 46f2 9a3e 3850 5a3e
000001e0: a358 40be 7cc1 6f3c 99b3 833e b061 69be
000001f0: 364c b4be c94d 4abf a576 72be 12da cfbe
00000200: 65f3 e9bd 7f0f 87bd c465 0dbe b080 50be
00000210: 3321 13be 4e96 56be 0f1b 0abe 7235 ca3e
00000220: 854c c33e da3b ca3e 4767 eebd 1ace 53bd
00000230: 0a5b 3a3e 909f ffbc 5bca 793d 7ec5 c5bd
-0.4226096 -0.26156682 -0.10458346 -0.30797094 0.1422623 0.41380444 -0.18901932 0.33640704
0.11676457 -0.06922032 0.32974747 -0.25636736 0.32046908 0.050595075 0.2978909 0.25495216
0.06271396 0.14151251 -0.22898656 -0.113430575 0.14083396 -0.2244661 0.2599144 0.3393752
0.14767337 -0.38677683 -0.58468497 -0.26142526 0.36465496 -0.059097547 -0.54330736 -0.04930541
-0.34216008 -0.1737361 -0.4737108 -0.44577336 0.095328815 0.039621353 -0.16100778 0.22907026
-0.0002746847 -0.0125522325 0.5289098 -0.050054766 0.6816502 0.06479197 0.20538493 -0.5119626
0.3237134 0.2991871 -0.4035446 0.07439748 0.11291776 -0.40974277 -0.46004966 0.1028181
0.21609336 -0.27496797 0.22073811 0.50834787 0.4498836 0.12427703 -0.16721322 -0.00014846826
-0.3050315 0.4684767 -0.06542741 0.3067094 0.15999928 0.40246361 0.041906904 0.21056058
-0.2834273 -0.438429 -0.23764345 -0.1434911 0.060194902 -0.063705355 0.4096953 0.23814872
0.30093068 0.333396 0.19102626 -0.20471017 -0.19373813 -0.2566777 -0.25800273 -0.06335491
-0.17342477 0.26947314 -0.25846484 0.17472251 0.14600642 0.25639835 0.4244484 0.3360376
0.21412526 0.011040239 -0.23234384 0.24353191 -0.36403182 -0.3924434 0.08169922 -0.17763217
-0.19386725 0.14726159 -0.38921046 0.021011086 0.12119952 -0.31538785 -0.29225755 -0.29500058
-0.29407048 0.08296052 -0.3483087 -0.09196817 0.24116758 -0.08211608 0.30262965 0.21319664
-0.18783812 0.014633533 0.2572296 -0.22791171 -0.35214394 -0.7902494 -0.23678072 -0.40596062
-0.11423377 -0.065947525 -0.13808352 -0.2036159 -0.14368133 -0.20955774 -0.13486885 0.394939
0.38144317 0.39498788 -0.11640792 -0.051710226 0.18198791 -0.031204015 0.060983997 -0.09656809

conv1.bias f4 [16]
00000000: dea0 1dbe 0506 5f3d 0f91 783e 4754 0dbe
00000010: 5ec2 bcbd d352 b0be abdf 03be 35c3 613d
00000020: 5e81 93be 7019 703e eb23 9cbd cbba 413e
00000030: 5d9e 43be 2cb9 1dbf 36d7 ea3e d412 653e
-0.15393397 0.0544491 0.24274085 -0.1380168 -0.0921676 -0.3443819 -0.12878291 0.055117805
-0.28809637 0.23447204 -0.07624038 0.18918912 -0.1910338 -0.61610675 0.45867318 0.22370464

conv2.weight f4 [8, 16, 3, 3]
00000000: b198 b1bd d165 8cbd 225d 2e3d 2314 b73d
00000010: 8647 1d3e ec34 a03d 869a dd3d 303c 9e3d
00000020: 790d fabd d6f3 133d 3a3c 633d d1d6 0dbe
00000030: 872a 3abd 115f 82bd d275 0cbe b981 7abd
00000040: 5587 eebd a029 c5bd 2b9d 10be e281 2abd
00000050: f11e 3abe 90a4 f7bd ce29 debd 9879 1dbe
00000060: 385b a8bd 6da6 91bd 579e 24be 3365 81bd
00000070: f895 4bbc df9f 893d e700 c83d 97e5 d73d
00000080: 5318 603d 05a4 763d eb50 6a3d 7861 153e
00000090: 05e1 973d bd24 063e cd94 9dbc 8292 54bd
000000a0: 0ad7 a73c 6e51 933d 9590 313d f4b0 32bd
000000b0: 149a 86bd 2111 8c3d b248 f43d 54c8 81be
000000c0: cc83 02bc 5ffe 7fbd c470 39be 04e6 d3bd
000000d0: 047f 6abc a2fb c7bd 95d5 a13d f2e6 a6bd
000000e0: e635 0ebe 779c 58be eec2 babd 4912 85bd
000000f0: ee23 6d3c 46db 8b3d 98fd 8d3d 6911 023d
00000100: e7b3 a6bd 4b08 10bd afc6 1fbe 84b5 39be
00000110: 0427 e8bc 6e64 e13b 0d01 2cbb 4311 68bc
00000120: cee9 33bd 1a89 45be ef72 a9ba 4e3c 8a3d
00000130: 0ffe 573e 58aa 483e ebf2 ec3c 077b bcbd
00000140: ca29 103d 4f0a 32be 01c2 f03c 2448 ff3c
00000150: cb9c 703e 3a09 5a3e 3177 acbd f745 1fbd
00000160: bcab 1abe a862 55be 278e c73d 99dc 81bd
00000170: 6715 9bbd ac36 09be d47f 0bbe eff1 12bd
00000180: d63b 9f3c ff8a 4f3d e7a6 163e 9f0e 97bd
00000190: 830c ad3c baaf e73c 5d44 9d3d 3c80 873c
000001a0: 4240 febd ffbe 453d 232c ba3c ac92 92bd
000001b0: 1694 1c3d 8ef0 a83d f477 923e 8d78 483e
000001c0: 5653 b23e 0137 243e 0496 563e 40a9 4f3d
000001d0: 6eec fd3c 47ff e13d d65d c53d bde7 bbbd
000001e0: 7959 323e 381d 5cbd 2d3a 5abd b8b0 b8bd
000001f0: 1a1e 563d e02b 803b a3d9 2ebe ceb3 9ebd
00000200: b324 dc3c fd93 213d 7ef1 653d d366 cabd
00000210: 53e0 843d 3b3b 6b3d 1b4b b53d fc40 a13d
00000220: ca67 09be a873 40bd 6fba bd3a 16ce 4c3c
00000230: ba94 6ebd 0927 073c fb06 ddbd 62db 443d
00000240: 321e 0e3e 6c89 4a3e 342f eabb fb39 a13d
00000250: 6778 adbd 5548 d43c 088e 53be 9dae 22bd
00000260: 61b3 923c d52c ad3d d711 8b3d 43d0 e53d
00000270: 9102 8e3d a244 f8bc 98ef a3bd e5bb ddbd
00000280: aa34 30be 2716 253a 1a02 a33c 6188 a6bc
00000290: 7207 513c f124 153d 9c7d 07bd 823b b9bc
000002a0: 5db7 fcbc f95a 9cbc a36b 9c3c f447 09be
000002b0: 6b94 37be cbac b1bd c2f6 50be e0e1 acbd
000002c0: 8af9 3bbd e400 593c 3c5c db3d 1508 113e
000002d0: 206e c43d 979a aa3d 6007 4d3d 19a2 f93c
000002e0: f12c 11bd 24ad 06be 7f80 47be 79f4 18be
000002f0: ba85 5dbd e7ad 1dbd ae1e 9f3b 49dd 293d
00000300: 9c69 853e 5cd2 e93c a465 853b c4c7 fb3c
00000310: b7f1 a33b a08a b43d 1dbe 4b3e 3c61 c33d
00000320: 2443 8d3d ccdd 4e3c 5d3b b63d 2790 d4bd
00000330: be09 2bbe f12a bebc 5c34 2cbd 3a4f 063e
00000340: f7cd 113e 2105 6fbd 5158 803d 0d25 22bd
00000350: 8f04 febd 90ef 6ebe fc31 ffbd f0fa 29bd
00000360: d862 fdbc 244e 87bd 249c 15bd ef99 c7ba
00000370: 1651 f6bd 3a19 f0bc a9a5 01be 2e12 a53d
00000380: 5e6b 193e 0e2b fb3b 744f 19bd 7a75 8c3d
00000390: 5a46 87bd 5db2 523c ae06 be3c b773 fd3d
000003a0: 6e0d 233e 19b5 713c cde2 b23d 4757 e73d
000003b0: e952 473d aa7f 633d 22df 883d b942 00be
000003c0: 682c 3cbe 094f 92bd 8869 91bd d4bd e5bd
000003d0: e7cb 87bd bf9b b43c c9a6 82bd 5819 84bd
000003e0: 111a 5fbd 1d04 89bd 9c7d ae3b e79d e13d
000003f0: edca ea3d 9e27 853c 0dc1 6dbc 672b a03d
-0.08671702 -0.068553574 0.042569287 0.08939388 0.15359315 0.07822594 0.10820489 0.077263236
-0.12209601 0.036121212 0.05547736 -0.13851477 -0.045450713 -0.06365789 -0.1371682 -0.06115887
-0.11646906 -0.0962708 -0.14122455 -0.041627772 -0.18175866 -0.12091935 -0.10847817 -0.15378416
-0.082205236 -0.07111821 -0.16076027 -0.0631813 -0.012425892 0.06719946 0.09765797 0.10541838
0.054710697 0.060215015 0.057206076 0.14587963 0.07415966 0.13099952 -0.019235993 -0.051897533
0.02048828 0.07193266 0.043350775 -0.043625787 -0.06572357 0.068392046 0.11927928 -0.2534815
-0.007965993 -0.062498447 -0.18109423 -0.103466064 -0.014312509 -0.09764792 0.07902066 -0.08149518
-0.13887748 -0.21153437 -0.09119211 -0.06497628 0.014473898 0.068289325 0.06933135 0.031754885
-0.081397824 -0.03516416 -0.15603136 -0.18135649 -0.028338917 0.006878427 -0.0026245744 -0.014164272
-0.043924145 -0.19290581 -0.001292793 0.067497835 0.2109301 0.19596231 0.028924426 -0.09203153
0.035196103 -0.17386745 0.029389383 0.031162329 0.23497312 0.21292582 -0.084211715 -0.038885083
-0.15104574 -0.20838416 0.0974391 -0.06340904 -0.075724415 -0.13399762 -0.13622981 -0.035875257
0.019437712 0.050669666 0.14712106 -0.073758356 0.02112413 0.028282035 0.07679055 0.01654064
-0.124146 0.04827785 0.022726124 -0.07156882 0.038227163 0.08249007 0.28607142 0.19577236
0.34829205 0.16036607 0.20955664 0.05069852 0.030996528 0.110350184 0.096370384 -0.0917506
0.17416944 -0.053738803 -0.053278137 -0.090180814 0.0522748 0.0039114803 -0.1707521 -0.07749139
0.026872968 0.039447773 0.056138508 -0.098828934 0.06488099 0.057429533 0.08852216 0.07873723
-0.13418499 -0.0469853 0.0014475117 0.012500307 -0.058247305 0.008249053 -0.10792347 0.048060782
0.13878706 0.19778985 -0.0071467403 0.07872387 -0.084702305 0.025913397 -0.2065965 -0.039717305
0.0179078 0.08455817 0.06790512 0.112213634 0.06934083 -0.030306164 -0.08004683 -0.10826854
-0.1720759 0.00062975514 0.019898463 -0.020328702 0.012758123 0.036412183 -0.033078775 -0.022611383
-0.030849153 -0.019086348 0.019094294 -0.13406354 -0.1792771 -0.08675536 -0.2040663 -0.0844152
-0.045892276 0.013244841 0.10710952 0.1416324 0.09591317 0.08330267 0.05005586 0.030472802
-0.03544325 -0.13151985 -0.19482611 -0.14937009 -0.05408261 -0.038495924 0.004855952 0.0414708
0.26057136 0.02854269 0.0040709544 0.030734904 0.00500318 0.08815503 0.19896741 0.0954003
0.06897572 0.012626123 0.088980414 -0.103790574 -0.16702935 -0.023213835 -0.04204212 0.1311616
0.14238726 -0.0583545 0.06266845 -0.039586116 -0.12403213 -0.23333573 -0.12460706 -0.04149908
-0.030930921 -0.06606701 -0.03652586 -0.0015228371 -0.12027185 -0.029308904 -0.1266085 0.08060108
0.14982364 0.0076650446 -0.037429288 0.068583444 -0.06605215 0.012859908 0.023196544 0.123755865
0.15923092 0.01475265 0.08734665 0.11295944 0.048663054 0.05554167 0.06683184 -0.12525453
-0.18376315 -0.07143981 -0.071002066 -0.112178475 -0.06630688 0.022046922 -0.06379468 -0.064501464
-0.05446822 -0.06690238 0.0053250324 0.110164456 0.11464486 0.016254243 -0.014511359 0.07820778

conv2.bias f4 [8]
00000000: 7adc 48be 82e0 0dbe 9814 8bbe aa79 46be
00000010: 49e4 08be 0ef3 b1bd 7ead f7bc 31d3 2ebe
-0.19615355 -0.13855174 -0.2716415 -0.19382349 -0.13368334 -0.08688937 -0.030234095 -0.1707275

fc1.weight f4 [32, 392]
00000000: 3202 363c 6eb7 ef3c c699 2dbd 6f34 52bd
00000010: 52f4 0cbd b332 cc3c a3fb 933c 2574 3dbd
00000020: abff c03c 8daa 243c 2024 02bc ed1b 0e3d
00000030: 6b2c 51ba 3694 823c 64b8 28bd 4adf ae3c
00000040: 152f bbbc 5d6e 80bd 0950 993d 2bf3 183c
00000050: 8d7a 1a3d 0a57 17bc cb04 ec3c 06dc 43be
00000060: 3fc4 31be aa86 ab3c 57f0 093d e194 023d
00000070: 3b4c 4f3b c73b da3b 3b45 0c3e a470 aebd
00000080: 2ef1 443d ea2b 9b3d 62b1 4fbd bf72 d5bc
00000090: 9efb b1bc 605f c1bc 29a8 f2bd 2352 84bd
000000a0: ed91 903c 7ac2 a8bc c3bd 6bbc 2ca8 353d
000000b0: 03f9 56bd 75f9 85bd 269a 303d 8572 013d
000000c0: c80a ef3c 27d7 2a3d 75dc c53c d709 4fbc
000000d0: c8b8 213c d92b 093c 4917 513d 28fb 56bd
000000e0: 3033 0b3c ddda 053d c2aa ac3c 60b7 213d
000000f0: a856 b33b 523d d23c 5112 8b3d 3511 37bd
00000100: b718 b8bc 36fa 073d 277e f3bd 7a04 7cbd
00000110: 2294 543d b283 8b3d 3e20 44bc 495b 8d3c
00000120: c7f1 83bb 6169 30bd 1f9f 6b3c 4e8a 8ebb
00000130: c090 363d 0969 303d 6118 9c3d 7d41 9d3d
00000140: c15d 503e 8d80 f9bb fecc 31be a1f2 893b
00000150: 16b6 0f3c 60ee da38 4b78 f63a e706 b73d
00000160: a476 74bd b43a a73d abeb cebc 0cbd 243d
00000170: c887 29bc 6222 a5bd 70fa 8bbd 193d 393d
00000180: 557a 98bb 6cfb 2b3c 6f0d 953b 0b39 bc3c
00000190: 2229 813c 7800 da3c 7b85 db3c 8b96 37bc
000001a0: b58f e33c f49c a13c 59f7 3dbc 0f86 a23c
000001b0: f788 65bd 8bdc 3ebc 5c36 a7bc 9e09 233d
000001c0: 36ed 26bd fd78 e8bc 7ff9 333d bd7c 2e3c
000001d0: 9c34 83bd 436d ee3d 8c31 56bc 5dd4 29bd
000001e0: 3f4c 1739 5185 3e3d 8e7c 7e3a 6811 2d3d
000001f0: fa89 85bd f63d 28bd 3de0 01bd 52b4 933d
00000200: 4609 5e3d 7cc6 f73d 3d82 95bd 78e9 82bd
00000210: bfba 44bd a0f5 01bd 3952 02bd 94e0 8dbc
00000220: e815 8f3d dd00 c53c 46e7 fdbc 3dcd 1b3d
00000230: cf73 28bc 0705 a2bd 3971 03bd d5c8 6cbd
00000240: 4f86 91bd 687f 0e3c 488c 683c b21b 053c
00000250: e631 f43c 26b6 1f3b 8d95 783d a247 013e
00000260: 2634 c03c 14cd 21bd 06b7 b8bc ecd6 01bd
00000270: be2d 86bd 8c04 4dbd 30e4 e1bd af8e dbbc
00000280: b4d2 333c c63c c03c be6a d53c b36f f4b8
00000290: 4b5f 093c afb6 71bd ee7b 08be 8e52 523c
000002a0: d7ac 563d 626d 913d ce2e 803d a46e 3c3e
000002b0: 2f5e 823d 0811 16be 86e2 fc3c 095d 18bd
000002c0: c987 c3bd 2795 23be cf16 17be 032c 94bd
000002d0: 82d8 9d3d 9f2f 8b3d f609 a1bc 97b7 cebd
000002e0: b27b 3abe 998d 49be ba8c 66bd ddf2 c53d
000002f0: 9cf5 0bbd 6364 88bb 2a64 bc3d 48e6 723d
00000300: baae 67bd 5b47 133d fb6e 4d3d afa1 4d3c
00000310: 3523 1abd 7c20 2abd 57bb 45bc 9269 30bd
00000320: b459 fe3a 8b3a 2cbd 620b 28bb 8fae 4bbd
00000330: e9d3 f3bb 5af4 a2bd 2e7a 88bd 09e5 b9bd
00000340: c4cc acbc d3fd c83c fef9 aabd b260 6f3c
00000350: 6ce4 b8bd 7c67 2cbe 9f97 29be 0e74 16bd
00000360: 82eb 77bd 7ed1 303a b3b1 7c3d 9665 a73c
00000370: 913c 6fbd 0dc5 edbd d68f ce3d 718e f93c
00000380: 17f4 97bc ef28 3cbe 740e 71be 8f9d 1c3d
00000390: 296d bcbc 7e22 ce3d 80f0 753d 9183 e5bc
000003a0: 468a ddbd c657 7dbd e88c 58bd 96cc 6bbd
000003b0: b0f4 713d b679 833d 13d7 443d 62d7 103d
000003c0: 8885 0e3b a8e3 eb3c c677 8e3d de0b 1c3d
000003d0: a262 f0bc b391 1cbd f480 41bc 22fa 133d
000003e0: e263 c1bc f139 fcbc 2732 63bc 5840 29bd
000003f0: 5682 31bd 9354 033d 96a7 02bd 89fe 08bd
0.011108922 0.02926227 -0.042382978 -0.051319536 -0.03441269 0.024926519 0.018064326 -0.046253342
0.023559412 0.010050428 -0.007943183 0.0346946 -0.0007979336 0.015939813 -0.041191474 0.021346707
-0.022849599 -0.0627105 0.074859686 0.0093353195 0.03771453 -0.00923706 0.02881088 -0.19126901
-0.17360018 0.020938236 0.03367647 0.031880263 0.003163113 0.006659958 0.13698284 -0.08517578
0.04808157 0.07576735 -0.050706275 -0.026055692 -0.021726426 -0.023605049 -0.1184848 -0.06460979
0.017647708 -0.020600546 -0.014388504 0.044349834 -0.05248357 -0.06541721 0.043115757 0.031603355
0.029179946 0.04170909 0.024152974 -0.012636623 0.009870715 0.0083722705 0.051047597 -0.052485615
0.008496091 0.032679427 0.021077517 0.03948152 0.0054729767 0.025664005 0.06790603 -0.044694144
-0.022472722 0.033197604 -0.11889296 -0.061527707 0.051899083 0.06812228 -0.011970578 0.017255442
-0.004026625 -0.043069247 0.014381199 -0.0043499833 0.044571638 0.04306892 0.076218374 0.076785065
0.20348264 -0.0076142014 -0.17363355 0.004209832 0.00877144 0.00010439451 0.0018804161 0.089368634
-0.059683457 0.081654936 -0.02525886 0.04021935 -0.010347314 -0.080631986 -0.068348765 0.045224283
-0.004653255 0.010496955 0.0045487205 0.022976419 0.015766684 0.026611552 0.026797047 -0.011205326
0.027778486 0.019728161 -0.011594617 0.019839315 -0.056038823 -0.011649261 -0.020411663 0.039804094
-0.040753566 -0.028378004 0.04393911 0.010649857 -0.06406519 0.11641934 -0.013073336 -0.04146229
0.00014428886 0.04651386 0.0009707891 0.042252928 -0.065204576 -0.041074716 -0.03170799 0.07212128
0.054208063 0.12098405 -0.073002316 -0.06392187 -0.048029657 -0.031728387 -0.031816695 -0.017319001
0.069866 0.024048263 -0.030994069 0.038037527 -0.010281517 -0.07911115 -0.0320904 -0.057808716
-0.071056955 0.008697368 0.014193602 0.008124279 0.02980895 0.0024370044 0.060689498 0.12624982
0.023462366 -0.03950222 -0.02254821 -0.031699106 -0.065516934 -0.050053164 -0.110298514 -0.026801435
0.0109755285 0.023466479 0.026051875 -0.00011655632 0.008384536 -0.05901211 -0.13328525 0.012837065
0.052410927 0.07100941 0.06258927 0.18401581 0.0636562 -0.14654934 0.030869734 -0.0371981
-0.09547383 -0.15974866 -0.14754795 -0.07234957 0.07707311 0.067961924 -0.01965807 -0.10093611
-0.18211249 -0.19682921 -0.05628655 0.09665463 -0.03416978 -0.0041623577 0.09198792 0.059301645
-0.056563117 0.03595672 0.050154667 0.012550755 -0.037631232 -0.041534886 -0.012068591 -0.04306943
0.0019405396 -0.04204802 -0.002564155 -0.04972702 -0.007441033 -0.079567626 -0.06663929 -0.09076888
-0.021093734 0.024535095 -0.083484635 0.014610456 -0.09027943 -0.16836351 -0.16561745 -0.036731772
-0.060527332 0.0006745084 0.061692905 0.020434182 -0.05840737 -0.1160985 0.10086028 0.03046343
-0.018549008 -0.1837499 -0.2354067 0.038236197 -0.02300127 0.100651726 0.06004381 -0.028016837
-0.10817389 -0.061851285 -0.052868754 -0.057568155 0.059071243 0.06419699 0.048056673 0.035361655
0.0021747071 0.028795078 0.06956439 0.038097255 -0.029343907 -0.038224887 -0.01181053 0.036127217
-0.023607198 -0.030789347 -0.013866938 -0.04132113 -0.04333719 0.032063078 -0.031898104 -0.03344587

fc1.bias f4 [32]
00000000: 4f71 1cbc e1e8 0ebc 8f1c 023d c072 1a3d
00000010: 3d6a d83c 33c3 15bb 3db3 9bbc 03c0 e6bc
00000020: 80b8 adbc 941a e3bc 48f3 39bd 6a0e 44bd
00000030: 6cf0 dfbc b4ca 2cbd b8d0 bbbc 851e d3bc
00000040: 1235 36bd b9ea c7bc dbca 793d 8b18 a93b
00000050: 55fb 87bc cd9a 1dbb 0da9 d6bc 88dd 24bd
00000060: 53f6 8abc 296c 73bd 6da9 2d3d 5514 cbbc
00000070: c814 903c 5350 ea3c fef6 0d3c 0651 b43c
-0.009548499 -0.008722515 0.031765517 0.03770709 0.026417846 -0.0022851944 -0.019006366 -0.02816773
-0.02120614 -0.027722634 -0.045398027 -0.04786531 -0.027336322 -0.0421855 -0.022926673 -0.025771389
-0.044484206 -0.024403917 0.060984474 0.0051603965 -0.016599337 -0.0024048567 -0.026203657 -0.04025033
-0.01696316 -0.05942932 0.042397905 -0.024789969 0.017588034 0.028602755 0.008664845 0.022011291

fc2.weight f4 [10, 32]
00000000: 886e d3be 6837 433f a9f2 9abe 4d46 88be
00000010: d299 e6be 03b7 febe 458c f7be 970a d0be
00000020: 16b3 463d 0cc3 0dbf 99c8 223f 7c15 cfbc
00000030: 26cf 1fbe 0647 253f 47b6 d53e 143f 21be
00000040: fde2 a5be d64b 853d 2362 213f be18 edbe
00000050: 91e4 583e 493c 463f 0fa3 d4bd 82b1 193f
00000060: a9b6 b53e 4731 db3e cd94 8fbe 367d 063f
00000070: d452 5f3d ea17 a13e 94ee 0ebf 83bd 333f
00000080: 3b75 fd3e 1611 bd3e 559b b83e ccb1 043f
00000090: 8ec5 45be 60c8 12bd f30a 49be cbae 70be
000000a0: 1f44 20bf 0772 c53e c00f efbd 7cd3 71be
000000b0: d663 4abe d135 d6be cde7 003f b3e4 a73e
000000c0: 3f1e 103f 64f1 3ebf c332 333f a008 043f
000000d0: d64c c8be 014b 113f 0e0a ae3e 65c4 c0be
000000e0: acef 3ebf 9c36 38bf 0735 0d3f 3741 ecbe
000000f0: deaa 983e 2715 ca3e 3125 d93e ea52 dfbe
00000100: d871 ed3e bc57 41bf cf3b 1ebf 6fe8 813e
00000110: 18a2 c3be f479 19bf 5c22 c73e d4af 58bf
00000120: a6c6 5ebf f51c 083f 2302 793e ae2c 823e
00000130: 2854 203f 10e7 003f cbe6 513e 1939 0dbe
00000140: e1c5 47be 935f f8be dd5e 5d3e 267e c13e
00000150: f6b1 8cbe d2cd 0cbf e1d4 8dbe f1fe 2b3f
00000160: 5d6b 063f e77c 3abf 0e23 be3e 472a c73e
00000170: d469 cfbe 611b cb3d f1c4 da3e 49e4 373f
00000180: de50 3fbf 18b9 5fbe 69d0 753e 3e3d 75be
00000190: 114f bdbe b766 053e c983 ce3e dd2f 903e
000001a0: 8063 2abf c8ba cebe 67a6 4dbe e1df 433e
000001b0: e9b5 623f 5b24 f9be 92ba 163f 8533 07bf
000001c0: 10fb e6bd 5864 003f 4907 12bf 554b 973e
000001d0: a4c9 2d3f 2c68 6bbe eda9 a6bd 10ad 49bf
000001e0: f977 1a3f e5c0 d83d 83c4 513f c01d ff3d
000001f0: f3a1 41bf 2349 c93e b1e8 e63e 87e8 22bf
00000200: 7611 f43e 2958 a8be 54b3 cc3e 8f32 3abf
00000210: fe39 40be 1842 8e3e 2783 0bbf e741 3e3f
00000220: 5aed 4e3d d149 d03e 9f10 31bf 5970 d33e
00000230: 1442 ffbe acb2 c7be 72c1 2abf ef51 433f
00000240: f093 f53e 2029 c8be 468d 0cbf b580 03bf
00000250: bb07 7dbe 20d6 3b3f 32fe e7be aa6a 843e
00000260: 46fd 643e 444b 00bf f8f2 e9be 0b04 323e
00000270: ffcc 6bbe 00b5 0ebf 20af bcbe 802b 5cbe
00000280: f32b 09bf 8eb0 1f3e bef0 223f 2e56 123f
00000290: 59f1 4e3f 0c17 f53e 2e06 073f 3aed f73e
000002a0: 1624 3b3f 04c6 88bf a1d5 03bd b0fa c0be
000002b0: 6c26 73be 8bce c1be bf00 3cbf 5015 27be
000002c0: 6208 b5be 1352 ca3e 30ec 813f ed53 313f
000002d0: 9635 1b3f 7d61 08bf fbf8 b4be 3095 21be
000002e0: 4310 2abe 99cb bebe f658 efbd a4aa c33e
000002f0: c7b7 063e 1ef6 4b3e f268 bfbd 1d20 c4be
00000300: 9f2b cd3e a605 debe efb4 42bf c407 b03e
00000310: 069e 983d 7475 0a3f 2b71 a53e aef1 bf3e
00000320: 710c 3b3f 787a 07be dfb1 3c3e 7e07 2cbe
00000330: 50fb 9a3e 2bf5 f6be 60b0 b8bd 129d f8be
00000340: 13f6 0e3f bfc7 87be f64f 0c3f d6d4 6abf
00000350: 3e4f 39be 1c7b 063f 874d 023f 2393 5a3e
00000360: d472 4dbe 6950 643e a652 a9be b820 163f
00000370: 6b0b 413f f688 c4be 63e0 cd3e 647d 3a3f
00000380: 8ce4 f4be 1b2e 573d a8d4 473d 5220 0a3f
00000390: 0308 1cbf a9fb fdbe 2d76 00bf 7cab bcbc
000003a0: b14a bd3b 244c c63d fc99 2abf bd3b 49bf
000003b0: 7470 8b3d 47e5 833f 6afd 353f d6f6 833f
000003c0: 018c cfbe 4fa6 adbd 34b8 1fbf fb1c 3c3e
000003d0: ebc0 273f 2a12 01be 2295 e6be f842 06bf
000003e0: ff60 3abf ea9d 353e c4bd 0bbf 379b d6be
000003f0: 7d66 fc3c f2c2 2ebf 01c5 6f3d 9f63 05bf
-0.41295266 0.7625642 -0.3026326 -0.26616135 -0.4503923 -0.49749002 -0.48349205 -0.4063308
0.048510633 -0.5537574 0.6358734 -0.0252788 -0.15606365 0.645615 0.4174063 -0.15746719
-0.3239974 0.06508605 0.6304037 -0.4630794 0.21180941 0.7743574 -0.103826635 0.6003648
0.3549092 0.42811033 -0.28043213 0.52534807 0.05452235 0.31463557 -0.5583279 0.70211047
0.49503502 0.36927098 0.3605601 0.51833797 -0.19313642 -0.035835624 -0.19633083 -0.23504178
-0.62603945 0.38563558 -0.11672926 -0.23615831 -0.19764647 -0.41837934 0.503537 0.3279167
0.5629615 -0.7458708 0.6999933 0.5157566 -0.3912112 0.5675507 0.33992046 -0.37649837
-0.7458446 -0.7195833 0.5515904 -0.46143505 0.2981786 0.39469263 0.42411187 -0.43617946
0.46375918 -0.755245 -0.6181001 0.25372645 -0.38209605 -0.5995171 0.38893402 -0.8464329
-0.87021863 0.53169185 0.24317221 0.25424713 0.6262841 0.50352573 0.20498197 -0.13791312
-0.19509079 -0.48510417 0.21618219 0.37791556 -0.27479523 -0.55001557 -0.27701476 0.67185885
0.52507573 -0.72846836 0.3713612 0.38899443 -0.40510428 0.099173315 0.4272838 0.7183271
-0.7473277 -0.21847951 0.24005283 -0.23949143 -0.36974385 0.13027464 0.4033492 0.28161517
-0.66558075 -0.40376878 -0.20083009 0.19128372 0.8855882 -0.4866055 0.58878434 -0.5281299
-0.11278355 0.5015311 -0.57042366 0.2954966 0.67885804 -0.22988957 -0.081378795 -0.787797
0.60339314 0.10583667 0.8194048 0.12456846 -0.7563774 0.3931361 0.45099404 -0.6363606
0.47669572 -0.3287976 0.39980567 -0.72733396 -0.18772122 0.277848 -0.54497 0.7431931
0.050519325 0.40681317 -0.69165987 0.41296652 -0.498551 -0.39003503 -0.66701424 0.76296896
0.4796443 -0.39093876 -0.54903066 -0.51368266 -0.2470998 0.73373604 -0.45311123 0.25862628
0.22362241 -0.50114846 -0.45693183 0.17384355 -0.23027419 -0.55744934 -0.3685236 -0.21500969
-0.53582686 0.15594694 0.63648593 0.5716275 0.8083702 0.47869146 0.52743804 0.48423177
0.7310194 -1.068543 -0.032186154 -0.3769126 -0.23745126 -0.37852892 -0.7343864 -0.16316724
-0.35357958 0.39515743 1.0150204 0.69268686 0.6062864 -0.53273755 -0.35346207 -0.15779567
-0.16607766 -0.37264708 -0.1168689 0.38216126 0.13156043 0.19918105 -0.093461886 -0.3830575
0.40072343 -0.43363684 -0.7605733 0.34380925 0.074520156 0.5408547 0.32312903 0.37489074
0.7306586 -0.13230312 0.18427227 -0.16799733 0.3026986 -0.48233923 -0.09018016 -0.48557335
0.5584423 -0.26519582 0.5480951 -0.9173101 -0.18096635 0.525316 0.5089955 0.2134519
-0.20063335 0.22296299 -0.33070868 0.58643675 0.7540805 -0.38385743 0.40210256 0.7284758
-0.47830617 0.052534204 0.04878679 0.53955567 -0.60949725 -0.49606064 -0.5018032 -0.023030989
0.005776726 0.096824914 -0.6664121 -0.7860678 0.06808558 1.0304345 0.71089804 1.0309703
-0.40536502 -0.084789865 -0.62390447 0.1837043 0.65528744 -0.12604585 -0.45035654 -0.52445936
-0.72804254 0.1773602 -0.54586434 -0.41915295 0.030810589 -0.6826621 0.058537487 -0.52105135

fc2.bias f4 [10]
00000000: 5f8b b2bd 76dd 83bd 76c0 8c3d f1f2 91bc
00000010: b1f5 ff3c f83c 873e 0cab dfbd 5e3c 50bb
00000020: bae2 80bd 7f33 3c3e
-0.08717989 -0.06438725 0.068726465 -0.017816039 0.031245084 0.26413703 -0.109212965 -0.0031774263
-0.06293245 0.18379019
